torchcam_lib/save_imagenette/teachers/resnet8_vanilla_imagenette_trial_0/resnet8_best.pth (torch, 333850 bytes, 47 tensors)

conv1.weight f4 [16, 3, 3, 3]
0	0xbefa304b	-0.4886497
1	0xbebfffd4	-0.3749987
2	0xbdac4173	-0.08410921
3	0xbeb8a918	-0.36066508
4	0x3da596d8	0.08085412
5	0x3f6c094f	0.92201704
6	0xbe409c1f	-0.18809555
7	0x3e6b29c9	0.22965159
8	0x3f401e72	0.75046456
9	0xbf03d359	-0.51494366
10	0xbf03c78a	-0.5147635
11	0xbf005b7a	-0.5013958
12	0xbe9af866	-0.30267638
13	0xbdfc8a3b	-0.12331053
14	0x3f3eace1	0.7448254
15	0xbe3119f7	-0.17295061
16	0xbe6c26e5	-0.23061712
17	0x3f437ed5	0.76365405
18	0xbda5571e	-0.08073257
19	0xbdd696b4	-0.10477963
20	0x3cfb1556	0.030649822
21	0xbeaab209	-0.33338955
22	0xbda6c81b	-0.08143636
23	0x3f6e7a9a	0.93155825
24	0xbef84801	-0.48492435
25	0xbe39b1a6	-0.18134174
26	0x3f26dc18	0.65179586
27	0x3f3bcacf	0.73356336
28	0x3f110b4b	0.56657857
29	0x3dca0487	0.09864145
30	0x3e36c4ee	0.1784856
31	0xbe142ae9	-0.14469494
32	0xbf0b46d5	-0.54404956
33	0xbd5e6775	-0.054297883
34	0xbea7de0c	-0.32786596
35	0xbf3fd3f4	-0.7493279
36	0x3f5fbbbe	0.87395847
37	0x3f0de7cd	0.55431825
38	0x3db578e5	0.088609494
39	0x3ec24be3	0.37948522
40	0xbe297d06	-0.16551599
41	0xbf3428ff	-0.70375055
42	0x3e4a99f6	0.19785294
43	0xbe8aab67	-0.27083895
44	0xbf6d4305	-0.9268039
45	0x3ea43874	0.3207432
46	0x3e674417	0.22584568
47	0x3d234c07	0.039867427
48	0x3f042ba9	0.5162912
49	0x3e0c818d	0.13721295
50	0xbefce3d2	-0.49392563
51	0x3e1ac954	0.15115863
52	0xbe7ec877	-0.24881159
53	0xbf130486	-0.5742878
54	0x3e50b4fc	0.2038154
55	0xbe0daf86	-0.13836488
56	0x3e7f599a	0.24936524
57	0xbea1226c	-0.31471574
58	0xbeb994db	-0.3624638
59	0x3e2ab970	0.16672301
60	0xbee446ff	-0.44585416
61	0xbf254115	-0.6455243
62	0xbe13c614	-0.1443103
63	0x3deb399d	0.11485598
64	0xbe0934bc	-0.13399023
65	0xbd87195d	-0.065966345
66	0xbcf9ba3c	-0.030484311
67	0x3d0c80ed	0.03430264
68	0x3e4eea97	0.20206676
69	0xbe1a940c	-0.15095538
70	0xbf0c02f3	-0.54692
71	0xbdf1090e	-0.11769305
72	0x3f8b2c37	1.0872868
73	0x3f821e6c	1.0165534
74	0x3fa3b125	1.2788435
75	0x3f0a6c89	0.5407186
76	0x3f24f4c7	0.64436
77	0x3fb5352e	1.4156854
78	0xbeab0d72	-0.33408695
79	0xbeb01221	-0.3438883
80	0x3eabcab6	0.33553094
81	0xbe39a453	-0.18129091
82	0x3d39d98a	0.045373477
83	0x3e873777	0.26409504
84	0xbfc6d1d5	-1.5532786
85	0xbf37612a	-0.71632636
86	0x3d180e0c	0.03712277
87	0xbe5d4f4f	-0.21612285
88	0xbf1706a1	-0.5899449
89	0xbe4ded1d	-0.20109983
90	0xbe0eb159	-0.1393484
91	0x3e1660f6	0.14685425
92	0x3f19e422	0.6011373
93	0xbf0ba82b	-0.5455348
94	0xbe8069ea	-0.25080806
95	0x3f119a92	0.5687648
96	0x3ee43be6	0.4457695
97	0x3e8d9e59	0.27659872
98	0x3ecca3ae	0.39968628
99	0xbf15f83f	-0.5858192
100	0x3d56b58c	0.05241923
101	0x3e3fcec8	0.18731225
102	0xbf5d17fe	-0.86364734
103	0xbed5bf76	-0.41747636
104	0x3d9685ca	0.07349737
105	0xbbf62946	-0.0075122444
106	0x3dba0c3e	0.09084366
107	0x3e4532ac	0.19257611
108	0xbd32e8b0	-0.04367894
109	0xbd0e3612	-0.034719534
110	0x3e7f2d8f	0.24919723
111	0xbdb52247	-0.088444285
112	0xbd1cbe32	-0.038267322
113	0x3ea0524b	0.31312785
114	0x3e50ff4e	0.20409891
115	0x3ec40a92	0.38289315
116	0x3f576950	0.8414507
117	0x3dec66f3	0.115430735
118	0x3dfa50ea	0.122224644
119	0xbd0feef2	-0.035139985
120	0xbf19302c	-0.5983913
121	0xbe0d97df	-0.13827465
122	0x3e04a52f	0.12953638
123	0xbf16ca04	-0.58902
124	0xba36a027	-0.00069666136
125	0x3eb06c42	0.34457594
126	0xbe066294	-0.13123542
127	0xbeb4842a	-0.35257083
128	0x3ec9f679	0.39445856
129	0xbfb84eaf	-1.4399012
130	0xbfcb5eab	-1.5888265
131	0xbe937e93	-0.28807506
132	0xbf14fef2	-0.58201516
133	0xbf2d05a3	-0.67586726
134	0x3b806d45	0.003919276
135	0x3e0c2597	0.13686214
136	0x3cb5cc99	0.022192286
137	0xbc7a2e10	-0.015269771
138	0xbe340a52	-0.17582062
139	0x3df831fa	0.12118907
140	0x3dd80905	0.10548595
141	0xbe7e9d2d	-0.24864645
142	0xbe682de0	-0.2267375
143	0xbaba42c0	-0.0014210567
144	0x3f03886e	0.5138005
145	0x3f221040	0.63306046
146	0x3efd575b	0.4948071
147	0x3e01f9bb	0.12692921
148	0x3f48fe28	0.7851281
149	0x3f1d87c5	0.6153529
150	0xbe791d66	-0.24327621
151	0x3ee9502a	0.45568973
152	0x3f322b9e	0.69597805
153	0xbdd60b54	-0.104513794
154	0xbf3a3de2	-0.72750676
155	0xbf2d7f49	-0.67772347
156	0xbf519c9c	-0.8187959
157	0xbe980876	-0.29693955
158	0xbf046556	-0.51717126
159	0xbf2cc5c6	-0.6748928
160	0xbe5b14f2	-0.21394709
161	0x3c90ee47	0.017691744
162	0x3f1569c7	0.5836453
163	0x3f3f4a1c	0.74722457
164	0x3e0e9b6c	0.13926476
165	0x3d079a8e	0.03310638
166	0x3e45f033	0.1932991
167	0xbe16e7fa	-0.1473693
168	0xbf15c1df	-0.5849895
169	0xbf1e9179	-0.61940724
170	0xbebab835	-0.36468664
171	0x3f38870f	0.72081083
172	0x3f4bb779	0.7957683
173	0x3df807fd	0.12110899
174	0xbd467a6e	-0.0484566
175	0x3cfb8017	0.030700726
176	0x3ccf332c	0.025292955
177	0xbf0ec46b	-0.5576846
178	0xbefacd9c	-0.48984993
179	0xbf1cddc6	-0.612759
180	0x3f0fbbf2	0.56146157
181	0x3ef61ace	0.48067325
182	0x3e8d02f9	0.2754133
183	0x3e0ce85e	0.13760516
184	0x3e364591	0.17799975
185	0x3d425d52	0.04745228
186	0xbf21858b	-0.63094395
187	0xbf4832ea	-0.7820269
188	0xbe58ad62	-0.2115989
189	0xbe653b14	-0.22385818
190	0xbb84723d	-0.0040419386
191	0x3e8c613f	0.27417943
192	0xbefef7eb	-0.4979852
193	0x3eb22ea0	0.34801197
194	0x3ed30517	0.4121482
195	0xbe8953df	-0.268218
196	0x3e2b2eb9	0.16717042
197	0x3e8e766a	0.27824718
198	0x3e0f58a2	0.13998654
199	0x3e89b49b	0.26895604
200	0x3d82e8b5	0.063920416
201	0xbd5881db	-0.052858215
202	0xbee00f4e	-0.43761677
203	0xbe16e083	-0.14734082
204	0xbaed236e	-0.0018092224
205	0xbeca65c7	-0.39530775
206	0xbeb18c0f	-0.3467717
207	0x3f586209	0.8452459
208	0x3df3e27b	0.11908432
209	0xbf80edb7	-1.0072545
210	0x3f31a291	0.6938868
211	0xbde1a568	-0.11017877
212	0xbf78ba1a	-0.9715897
213	0x3f5ee781	0.87071997
214	0x3e30929b	0.17243426
215	0xbf377e60	-0.7167721
216	0xbdcb9863	-0.09941175
217	0xbed7e98d	-0.42170373
218	0xbe49d2f4	-0.19709378
219	0xbe532150	-0.20618176
220	0xbf71a3d7	-0.94390625
221	0xbeccd405	-0.40005508
222	0xbf07031b	-0.52739114
223	0xbf6fc461	-0.93659025
224	0xbed28749	-0.4111884
225	0x3ea00128	0.31250882
226	0x3e87bdfe	0.2651214
227	0x3ed959ec	0.42451417
228	0x3e812779	0.25225428
229	0xbe3f94c2	-0.1870909
230	0x3e7edc65	0.24888761
231	0xbe8096b0	-0.25114965
232	0xbeef3b43	-0.467249
233	0xbea25f5b	-0.31713375
234	0x3f0af978	0.5428691
235	0x3ec8af1b	0.39196095
236	0x3f5b696a	0.85707724
237	0x3ec9cf5a	0.3941601
238	0x3eba37c7	0.3637068
239	0x3f379382	0.71709454
240	0xbd7837a4	-0.060599938
241	0xbe49df80	-0.19714165
242	0x3df483fc	0.119392365
243	0x3f36e5f3	0.71444625
244	0x3e9bd221	0.30433753
245	0x3d4331e1	0.04765499
246	0x3e86446c	0.26224077
247	0xbed61f50	-0.41820765
248	0xbe9f99c4	-0.31172
249	0x3e9a81c5	0.3017713
250	0x3df3787d	0.11888216
251	0xbdf64bdf	-0.1202619
252	0x3cb6e85f	0.0223276
253	0xbf0d8194	-0.55275846
254	0xbfb08bd0	-1.3792667
255	0xbe145cc6	-0.14488515

bn1.weight f4 [16]
0	0x3f58ddb1	0.84713274
1	0x3f94cb8d	1.1624619
2	0x3ed00da3	0.40635404
3	0x3f2a19bb	0.6644551
4	0x3f17c3b7	0.5928301
5	0x3f044820	0.51672554
6	0x3fb25b5d	1.3934132
7	0x3f0e31c1	0.5554467
8	0x3ee21dad	0.44163266
9	0x3f108ce5	0.5646499
10	0x3f2643b5	0.6494706
11	0x3f7789e0	0.96694756
12	0x3facd23c	1.3501658
13	0x3f4691a1	0.7756596
14	0x3fa23622	1.267277
15	0x3fae429b	1.3614076

bn1.bias f4 [16]
0	0x3eb0e734	0.34551394
1	0x3f0014fc	0.5003202
2	0x3d4e5077	0.050369706
3	0xbea66550	-0.3249917
4	0xbdbe16a6	-0.092816636
5	0x3e537fb7	0.20654188
6	0x3f5970b2	0.84937584
7	0x3e5bb0a0	0.21454096
8	0x3ebf4cc7	0.37363264
9	0xbd185f8a	-0.03720049
10	0x3f4fa2b9	0.8110767
11	0x3f0c80a0	0.54883766
12	0x3f306265	0.6890014
13	0x3ef1323e	0.47108644
14	0x3eb25396	0.34829396
15	0x3eec792c	0.46186197

bn1.running_mean f4 [16]
0	0xbcba888a	-0.022770185
1	0x3d2d11f8	0.042253464
2	0x3ea7bfa5	0.327634
3	0x3ee65d7b	0.44993195
4	0xbe8ab6af	-0.27092502
5	0xbe88f4f0	-0.26749372
6	0xbb4c9d28	-0.0031221602
7	0xbca14a94	-0.019688882
8	0x3f39fb44	0.72649026
9	0x3e3b36a7	0.18282567
10	0xbeb432ab	-0.35194907
11	0x3f3fca62	0.74918187
12	0x3cbd8214	0.023133315
13	0xbf352900	-0.70765686
14	0xbd62f427	-0.055408623
15	0xbd44c415	-0.04803856

bn1.running_var f4 [16]
0	0x4063d4a6	3.559854
1	0x408e6f8a	4.4511156
2	0x41e97bd0	29.185455
3	0x41652bb2	14.323168
4	0x41e089b5	28.06724
5	0x40a3851a	5.1099977
6	0x40899e0b	4.3005424
7	0x3fb727c3	1.4309009
8	0x4111a449	9.102609
9	0x40edf414	7.4360447
10	0x40e174ff	7.0455317
11	0x41295a57	10.584556
12	0x4083a960	4.1144257
13	0x4110e007	9.054694
14	0x40630bf5	3.5476048
15	0x40895f87	4.292911

layer1.0.conv1.weight f4 [16, 16, 3, 3]
0	0xbf8154c1	-1.010399
1	0x3dea4dac	0.11440596
2	0xbe85cf8c	-0.26134908
3	0xbfaf7076	-1.3706195
4	0xbefa8306	-0.48928088
5	0xbdfc28e1	-0.123124845
6	0x3d60c786	0.05487778
7	0x3ef1ad29	0.47202423
8	0x3d901b70	0.07036483
9	0x3dff04b2	0.124520674
10	0xbe95778e	-0.29192775
11	0xbf6ab5e6	-0.91683805
12	0x3f7d94f2	0.990554
13	0x3ee89bea	0.45431453
14	0xbefe5a98	-0.49678493
15	0xbbf01f28	-0.007327933
16	0xbf4edb9f	-0.80803865
17	0xbf8d3680	-1.1032257
18	0x3dd3ba23	0.10338237
19	0x3e2758f8	0.16342533
20	0xbd0dd952	-0.03463108
21	0x3e7af720	0.24508333
22	0x3d6ae010	0.05734259
23	0x3e481b37	0.19541632
24	0x3ef9ef3f	0.48815343
25	0xbd0f16cd	-0.034933854
26	0x3d1a3dd8	0.037656635
27	0x3d8471e4	0.064670354
28	0x3ea3d7a4	0.32000458
29	0xbbad8d21	-0.005296365
30	0xbe918070	-0.28418303
31	0x3e7aa42b	0.24476688
32	0x3ea4444f	0.32083365
33	0xbea142f0	-0.31496382
34	0xbe111dec	-0.1417157
35	0xbdf4af05	-0.11947445
36	0xbd141dd9	-0.036161277
37	0xbd56ce4f	-0.052442845
38	0x3d1f791a	0.03893385
39	0x3ec321fb	0.38111863
40	0x3e9de9f3	0.30842552
41	0x3ef58f90	0.47961092
42	0x3e1ddbe8	0.15415919
43	0x3f0b60c1	0.5444451
44	0x3ef69f1e	0.48168272
45	0xbe2d7588	-0.16939366
46	0x3e978747	0.29595396
47	0x3f0f1949	0.5589796
48	0xbec3a9bd	-0.38215438
49	0xbde6c292	-0.1126758
50	0x3e8a50c9	0.2701476
51	0x3bd5fb56	0.0065302057
52	0xbe20e350	-0.15711713
53	0xbf08809d	-0.5332125
54	0xbece171d	-0.4025201
55	0x3ea7f53a	0.3280428
56	0x3e93bcd2	0.28854996
57	0x3ed71c89	0.42013958
58	0x3e93d48d	0.288731
59	0x3f224a9a	0.6339508
60	0x3ed7a3f8	0.42117286
61	0xbfccbcff	-1.5995177
62	0xbfe0c3dd	-1.7559773
63	0xbe34fd2f	-0.17674707
64	0xbed23ce2	-0.41062075
65	0xbe825d63	-0.25461873
66	0x3e328b38	0.1743592
67	0x3e689434	0.22712785
68	0x3eef5fa1	0.46752647
69	0x3e1d5475	0.15364249
70	0x3de7ca68	0.11317903
71	0x3e13f34b	0.14448278
72	0x3ee247fd	0.44195548
73	0x3f2112eb	0.6291949
74	0x3ebc4420	0.36770725
75	0x3e0deb42	0.13859275
76	0x3e6af36b	0.22944419
77	0x3d4d2b25	0.050089974
78	0xbcc21252	-0.023690376
79	0xbea77e84	-0.3271371
80	0xbf064baf	-0.52459234
81	0xbed4c926	-0.41559714
82	0xbe8edc87	-0.27902624
83	0xbecb3940	-0.39692116
84	0x3e3b0f69	0.18267597
85	0x3dbe8a43	0.09303715
86	0x3d09b511	0.033619944
87	0x3e86dc87	0.26340124
88	0x3e20e19a	0.1571106
89	0x3cf648a4	0.030063935
90	0xbd1b7bdb	-0.037959915
91	0xbeb3da2d	-0.35127392
92	0xbeaf2f79	-0.34215906
93	0x3eb5945e	0.35464758
94	0x3eef31e7	0.4671776
95	0xbe7a22e6	-0.24427375
96	0xbbb34f74	-0.005472118
97	0xbe7505d6	-0.23928007
98	0xbf15f6e1	-0.5857983
99	0x3ec422ba	0.38307744
100	0x3e857fbb	0.26074013
101	0xbee858c0	-0.4538021
102	0x3e95b5a3	0.2924014
103	0xbda79768	-0.08183175
104	0xbf32597e	-0.69667804
105	0x3e030c87	0.12797748
106	0x3e81c859	0.25348166
107	0x3e27b227	0.16376553
108	0x3f2a3a9a	0.6649567
109	0xbebd6cd7	-0.369971
110	0xbfa29589	-1.2701885
111	0x3f93c70e	1.1545122
112	0xbdd10cf4	-0.10207549
113	0xbf8df3ae	-1.108999
114	0x3e901ad7	0.28145477
115	0x3ef76e07	0.48326132
116	0xbe703156	-0.2345632
117	0xbe5d83a9	-0.21632256
118	0xbda9fc0b	-0.083000265
119	0xbe49b73c	-0.19698805
120	0x3e311131	0.17291714
121	0xbda9adfe	-0.082851395
122	0x3e1f0123	0.15527777
123	0x3dced79a	0.100997165
124	0x3cdcdfca	0.02696218
125	0x3e8887c1	0.26666072
126	0x3dd21bcb	0.10259207
127	0x3f312b68	0.6920686
128	0xbf098b53	-0.53728217
129	0xbe6e1a68	-0.2325226
130	0x3ec8ab40	0.39193153
131	0x3f3c819f	0.73635286
132	0xbf88dbf6	-1.0692127
133	0xbfa28b68	-1.2698793
134	0x3e68616b	0.22693412
135	0xbe8fefaa	-0.28112537
136	0xbf836d44	-1.026772
137	0xbf19280c	-0.5982673
138	0x3e9a0a6b	0.30086073
139	0x3e7a9cb4	0.2447384
140	0x3da244f9	0.07923312
141	0xbf37f38e	-0.7185601
142	0x3f348a5c	0.7052362
143	0x3eab182e	0.33416885
144	0x3efbe741	0.4919987
145	0x3e84f4ce	0.2596802
146	0xbe9f5f10	-0.31127214
147	0x3caf5d12	0.021406684
148	0x3efdac9d	0.49545756
149	0x3e1b91e0	0.15192366
150	0xbf6b2fbd	-0.9186972
151	0x3e50a4c3	0.20375352
152	0x3ed48587	0.41508123
153	0xbfb6c43a	-1.4278634
154	0xbee0a502	-0.4387589
155	0xbf66ed4e	-0.9020585
156	0xbf22b1c9	-0.6355253
157	0xbe012687	-0.12612353
158	0xbef49518	-0.4777
159	0xbeef1e92	-0.4670301
160	0x3e931c61	0.2873259
161	0x3ee1d7b6	0.44109887
162	0xbf2c55ef	-0.67318624
163	0xbe933241	-0.28749278
164	0xbd2023c6	-0.039096616
165	0xbea48a67	-0.32136843
166	0x3df56adb	0.11983272
167	0x3f0ba09c	0.54541945
168	0x3d6c0411	0.057621066
169	0x3f02a91d	0.51039296
170	0x3f3e1762	0.7425443
171	0xbe08afaf	-0.13348268
172	0xbef56365	-0.47927395
173	0xbf2ddcac	-0.67914844
174	0xbe89171d	-0.26775447
175	0xbe53e243	-0.20691781
176	0xbecfdefe	-0.40599817
177	0xbd2ed7e7	-0.04268637
178	0xbe219d98	-0.15782773
179	0xbf37f421	-0.71856886
180	0x3e2e98f9	0.17050542
181	0x3e15bdc0	0.14623165
182	0x3e538f7d	0.20660205
183	0xbdaa747d	-0.083229996
184	0xbde9d95c	-0.11418411
185	0x3e70e789	0.23525824
186	0xbf371ea6	-0.7153114
187	0xbf33c9c5	-0.7022975
188	0xbf07995a	-0.5296837
189	0x3f06d8f6	0.52674806
190	0x3f2e7d83	0.68160266
191	0x3f2f7345	0.6853526
192	0x3e1575de	0.14595744
193	0x3e73d8d5	0.23813184
194	0x3dc5b85d	0.09654305
195	0xbd8826eb	-0.06648048
196	0xbf170013	-0.5898449
197	0xbee6a8ad	-0.45050564
198	0xbeae46b0	-0.34038305
199	0xbf090597	-0.53524154
200	0xbf7d36cb	-0.9891173
201	0xbee678be	-0.45013994
202	0x3e1e2b24	0.15446144
203	0x3da677a4	0.081282884
204	0xbec7b193	-0.39002666
205	0x3ebac42f	0.364778
206	0x3f3155cc	0.6927154
207	0x3d9a563a	0.07535978
208	0x3f01c295	0.50687534
209	0xbd849b08	-0.06474882
210	0x3d88a7da	0.0667264
211	0x3ede746d	0.434482
212	0xbf3fede9	-0.749724
213	0x3e1d31f8	0.15351093
214	0xbe0e4fe9	-0.13897671
215	0xbeb5b593	-0.35490093
216	0xbf59feb1	-0.85154253
217	0xbf619efa	-0.88133204
218	0xbf3a928e	-0.72879875
219	0xbecb1afe	-0.3966903
220	0xbdfeb877	-0.124375276
221	0x3e8f0c0b	0.27938876
222	0xbe274d17	-0.16338001
223	0x3f1ceda4	0.6130011
224	0x3f3f1e01	0.7465516
225	0x3dcc369b	0.09971353
226	0x3e51e441	0.20497228
227	0xbe201c6f	-0.15635847
228	0x3eb51556	0.3536784
229	0xbe375fa9	-0.17907585
230	0xbf264c70	-0.64960384
231	0x3f07c8c9	0.5304075
232	0x3d3f328e	0.046679072
233	0xbf0096aa	-0.50229895
234	0xbf5f9b83	-0.8734667
235	0x3edf8f00	0.43663788
236	0x3ce8c76e	0.028415408
237	0xbf219f2a	-0.6313349
238	0x3d2c3679	0.042044137
239	0xbd3e08c7	-0.04639509
240	0xbeeb2c87	-0.4593241
241	0x3acf7737	0.0015828375
242	0xbef8ed32	-0.48618466
243	0xbf37c6ac	-0.71787524
244	0xbf237e3e	-0.63864505
245	0xbedd7702	-0.43254858
246	0xbe84800d	-0.25878945
247	0xbd9d7220	-0.07687783
248	0x3ece48a7	0.40289804
249	0x3eee3d00	0.46530914
250	0x3f2f23e3	0.68414134
251	0x3f1629e4	0.5865767
252	0xbf82aac8	-1.0208368
253	0xbd411e4a	-0.047148027
254	0xbe02e86a	-0.12783971
255	0xbfe46ea8	-1.784627

layer1.0.bn1.weight f4 [16]
0	0x3ff19bc7	1.8875664
1	0x3fa190fb	1.262237
2	0x3f570d46	0.8400463
3	0x3f85f485	1.0465246
4	0x3f76751c	0.96272445
5	0x3fb1f04e	1.390146
6	0x3f3e4a7f	0.7433242
7	0x3fb5bd5c	1.4198413
8	0x3fb4beaf	1.4120692
9	0x3f779765	0.96715385
10	0x3f3cadaa	0.7370249
11	0x3fb25d3d	1.3934704
12	0x3fa00f44	1.2504659
13	0x3fa75675	1.307326
14	0x3fcafa5b	1.5857652
15	0x3f25aa95	0.6471341

layer1.0.bn1.bias f4 [16]
0	0x3eb3c787	0.35113165
1	0x3f170ffe	0.5900878
2	0xbe41d134	-0.18927461
3	0xbf410f3b	-0.75413865
4	0x3d29ca2c	0.04145257
5	0x3efafd27	0.49021265
6	0x3e6cc2b6	0.23121151
7	0x3eb18c6d	0.3467745
8	0xbcd3d5bd	-0.025858754
9	0xbe919784	-0.2843591
10	0xbdb516f7	-0.08842271
11	0x3dac578e	0.08415137
12	0xbde9ac85	-0.114098586
13	0xbd9d8430	-0.076912284
14	0xbcce944c	-0.025217198
15	0x3e9343f4	0.28762782

layer1.0.bn1.running_mean f4 [16]
0	0xc0981fb0	-4.753868
1	0xc121ee35	-10.120656
2	0xc15449bc	-13.268002
3	0x411cb11b	9.793239
4	0xc13f13f3	-11.94237
5	0xc00b6ee3	-2.178643
6	0xc1297883	-10.591922
7	0xc0b62170	-5.6915817
8	0xc0ee25d2	-7.4421167
9	0xc08f3187	-4.474796
10	0xc10e8d9a	-8.909571
11	0xc126f6b0	-10.435226
12	0xc10d3e10	-8.827652
13	0xc175829a	-15.344385
14	0xc0dbf0c2	-6.8731394
15	0x3f24a6d1	0.6431704

layer1.0.bn1.running_var f4 [16]
0	0x42a6e2ba	83.442825
1	0x42437a87	48.869656
2	0x425dcb38	55.448456
3	0x42270e72	41.764107
4	0x4319b8f8	153.72253
5	0x409f58a7	4.979572
6	0x4276abef	61.667904
7	0x422c5221	43.080204
8	0x42bb9920	93.79907
9	0x42c9ed51	100.96351
10	0x423aeaac	46.72917
11	0x42429185	48.64211
12	0x427ca1f8	63.158173
13	0x42f69a96	123.301926
14	0x429fda4e	79.92638
15	0x42767854	61.617508

layer1.0.conv2.weight f4 [16, 16, 3, 3]
0	0x3f8d53c9	1.1041194
1	0x3f74c3b7	0.9561114
2	0xbdc537a9	-0.09629757
3	0x3f7830b1	0.969493
4	0x3f6ea4d1	0.9322024
5	0x3f083cc6	0.5321773
6	0x3f36bb29	0.71379334
7	0x3fc2a44a	1.5206387
8	0x3f270101	0.65235907
9	0x3db9e8be	0.09077595
10	0xbe57d1b2	-0.21076086
11	0x3da95ad7	0.082692795
12	0x3d40a1c1	0.04702926
13	0x3ed3c399	0.41360167
14	0x3ef13338	0.4710939
15	0xbf7349f2	-0.95034707
16	0xbe8c2044	-0.27368367
17	0x3e2bb6f6	0.16769013
18	0xbe835b30	-0.25655508
19	0x3e9f2b9b	0.31087956
20	0x3f20f234	0.6286957
21	0xbe2fe72a	-0.17178026
22	0x3eb2608c	0.34839284
23	0x3f225bd5	0.63421375
24	0xbeeef30f	-0.46669814
25	0xbdcdfaf8	-0.10057634
26	0x3ea45c4f	0.32101676
27	0xbea739f3	-0.326614
28	0xbd335e66	-0.043791197
29	0x3e7ef8cf	0.248996
30	0xbf0d84b7	-0.5528063
31	0x3e183bba	0.14866534
32	0x3f1b69f7	0.60708565
33	0xbf3345ac	-0.70028186
34	0xbda463f6	-0.080268785
35	0x3d0eeee4	0.034895793
36	0xbea91c14	-0.33029234
37	0xbe1d88f7	-0.15384279
38	0x3f53f4ad	0.8279522
39	0xbe91445d	-0.2837247
40	0xbe78347a	-0.24238768
41	0x3ebd9695	0.37028947
42	0x3dbe32a5	0.092870034
43	0x3d94765f	0.0724914
44	0x3d88d2ea	0.06680854
45	0xbf4dbeea	-0.80369437
46	0xbf81c2fa	-1.0137627
47	0xbf57efcc	-0.84350276
48	0x3e6531a0	0.22382212
49	0x3e5fdcc0	0.21861553
50	0xbe96c305	-0.29445663
51	0x3f6eeb0a	0.9332739
52	0x3f30df65	0.69090873
53	0x3f49c528	0.7881646
54	0xbed7dffe	-0.4216308
55	0xbd2aefa3	-0.04173244
56	0xbde749d4	-0.112933785
57	0x3d845071	0.064606555
58	0x3e69e538	0.22841346
59	0xbd12a3a1	-0.03580058
60	0x3d81f3c8	0.06345326
61	0x3f21fc4d	0.63275605
62	0x3f0a8a4c	0.54117274
63	0xbde4bd2b	-0.111688934
64	0x3e8c207d	0.27368537
65	0x3e50b6d1	0.20382239
66	0xbc1be905	-0.009516005
67	0x3cb40d9a	0.021979142
68	0x3ab50c0a	0.0013812792
69	0x3e33cbfb	0.17558281
70	0x3ddd22f0	0.107976794
71	0x3e84d08a	0.25940353
72	0xbf08b9fc	-0.5340879
73	0xbde9c403	-0.114143394
74	0xbf175849	-0.5911909
75	0xbe8bc68b	-0.27299914
76	0x3e7f848c	0.24952906
77	0x3f0e726a	0.5564333
78	0x3dea5619	0.11442203
79	0x3e299c35	0.16563495
80	0x3f30b3d4	0.69024396
81	0x3eea8ac4	0.45808995
82	0x3f1389cf	0.57632154
83	0x3ef22e2e	0.47300857
84	0x3e7f04be	0.24904153
85	0x3ef2b882	0.47406393
86	0x3f39a3c7	0.7251553
87	0x3d7c4f74	0.06159921
88	0x3e58c080	0.21167183
89	0x3eb7429d	0.3579301
90	0x3f0d1dff	0.55123895
91	0x3f2daf17	0.6784529
92	0xbc033cde	-0.008010117
93	0x3e948e43	0.29014787
94	0x3eb74f31	0.35802606
95	0xbe0622f5	-0.13099273
96	0x3ed523ae	0.41628784
97	0x3ebdb7ee	0.3705439
98	0x3e97ed46	0.29673213
99	0x3f04dc8c	0.5189903
100	0x3ec9bed9	0.39403418
101	0x3f20ab51	0.6276141
102	0xbda75eb6	-0.081723616
103	0xbe41a3fe	-0.18910214
104	0x3e2906ef	0.16506551
105	0xbe935174	-0.2877308
106	0xbec240d1	-0.37940076
107	0x3d2351ae	0.039872818
108	0xbf1a2947	-0.60219234
109	0xbd995fe0	-0.0748899
110	0xbe815b42	-0.25264937
111	0xbf29ef75	-0.6638101
112	0xbf0d00d8	-0.5507941
113	0x3f0068a0	0.50159645
114	0xbe1387a8	-0.14407218
115	0x3ef6d130	0.48206472
116	0x3f8ebf93	1.1152214
117	0xbea801bb	-0.3281382
118	0x3de7ee06	0.11324696
119	0x3d9216e5	0.07133273
120	0x3e7772ea	0.2416493
121	0x3e883798	0.26604915
122	0xbd86c113	-0.06579795
123	0xbedfbe60	-0.43699932
124	0xbea17a2c	-0.31538522
125	0xbe8e5ac9	-0.2780364
126	0xbeac779b	-0.33685002
127	0xbf0ffa60	-0.56241417
128	0x3da7eb52	0.08199181
129	0x3f519dcd	0.8188141
130	0x3ee6b01a	0.4505623
131	0x3e0f33ab	0.13984554
132	0x3f3ad47c	0.72980475
133	0x3e904079	0.2817419
134	0x3cef919e	0.02924424
135	0x3cd68580	0.026186705
136	0x3db00f56	0.08596675
137	0x3e9256ce	0.28581852
138	0xbd83040a	-0.06397255
139	0x3e9780a0	0.2959032
140	0x3e8a6d94	0.27036726
141	0x3f0f8db9	0.56075627
142	0x3ec3fb44	0.38277638
143	0x3ed7e9d0	0.42170572
144	0xbe628317	-0.2212032
145	0xbe6d9535	-0.23201449
146	0x3d83fc10	0.064445615
147	0x3e119107	0.1421548
148	0x3e0fb63d	0.14034362
149	0x3eb51d09	0.35373715
150	0xbf35786f	-0.7088689
151	0xbf73aeec	-0.95188785
152	0xbe874d5f	-0.26426217
153	0x3f973916	1.1814296
154	0x3ebdcf7f	0.3707237
155	0xbe96a84e	-0.2942528
156	0x3f49038b	0.7852103
157	0xbcf6473d	-0.030063266
158	0xbf38be9e	-0.7216586
159	0x3f75ee12	0.9606639
160	0x3de8c919	0.11366481
161	0xbf8fe2ee	-1.1241128
162	0xbf975f7b	-1.1826013
163	0xbe9793ed	-0.29605046
164	0xbf591667	-0.8479981
165	0xbcdb9a09	-0.026806848
166	0x3ece2365	0.4026138
167	0xbef47eec	-0.47753084
168	0x3e1d8382	0.15382197
169	0x3e62e8ec	0.22159165
170	0xbf241760	-0.6409817
171	0xbe8702be	-0.2636928
172	0xbf1126ce	-0.56699836
173	0x3d8e50da	0.06949015
174	0xbec908a4	-0.39264405
175	0xbf0f5371	-0.55986696
176	0xbef4771d	-0.47747126
177	0x3e4c030a	0.19923034
178	0xbee8b082	-0.45447165
179	0xbe1311ed	-0.14362307
180	0xbe103c57	-0.14085518
181	0x3e5e7377	0.21723734
182	0xbc262f8a	-0.01014317
183	0xbef91044	-0.48645222
184	0xbe00a99b	-0.125647
185	0xbcf92284	-0.030411966
186	0x3e32fb05	0.17478569
187	0x3f45320c	0.7702949
188	0x3f31cc31	0.69452196
189	0xbe24b2ce	-0.16083834
190	0xbf59ffdd	-0.8515604
191	0xbec6ba92	-0.38814217
192	0xbf03d91c	-0.5150316
193	0xbe9931f8	-0.29920936
194	0xbd99b189	-0.07504565
195	0xbdc97471	-0.098366626
196	0x3e627da9	0.22118248
197	0x3dddbacd	0.10826645
198	0x3df53c59	0.11974401
199	0xbf4a783c	-0.79089713
200	0xbf68682c	-0.90783954
201	0x3eb03f64	0.34423363
202	0xbee75a5f	-0.45186135
203	0xbf58491a	-0.84486544
204	0x3f7eb129	0.99489075
205	0x3e778659	0.24172343
206	0xbf116861	-0.56799895
207	0xbefabbde	-0.48971456
208	0x3e9d7206	0.30751055
209	0x3f13f742	0.5779916
210	0xbf4342a5	-0.76273566
211	0x3f0e0c6e	0.55487716
212	0x3f4c6808	0.7984624
213	0xbea32429	-0.31863526
214	0xbd9b96bf	-0.07597112
215	0x3da2afed	0.079437114
216	0xbf02315a	-0.50856555
217	0x3ec226c3	0.37920198
218	0x3f0e3197	0.5554442
219	0xbe696c12	-0.22795132
220	0xbe0cac2d	-0.13737555
221	0xbf4015ef	-0.7503347
222	0x3f2cc4d2	0.67487824
223	0x3f0ee6e1	0.55821043
224	0xbefcd53d	-0.49381438
225	0x3e380bc7	0.17973243
226	0x3e5cdbc4	0.21568209
227	0xbe4d8f14	-0.20074111
228	0x3de319c6	0.110889
229	0x3ed9635d	0.4245862
230	0xbdd0e837	-0.102005415
231	0xbd714dc5	-0.058912057
232	0x3e44a907	0.19205104
233	0x39ae95fa	0.00033299607
234	0xbd15ea70	-0.03660053
235	0xbe64bc60	-0.22337484
236	0xbd015cd1	-0.031582657
237	0x3e64f8cd	0.22360535
238	0x3d15598d	0.036462355
239	0xbef41fa4	-0.4768039
240	0x3f03819d	0.5136965
241	0x3e8716e9	0.26384667
242	0xbe414290	-0.18873048
243	0xbd90b37e	-0.070654854
244	0x3edf4efa	0.43614942
245	0x3f7104b8	0.94147825
246	0xbee96106	-0.45581836
247	0x3eac6e78	0.3367803
248	0x3f9b2f32	1.2123778
249	0xbebc3c8b	-0.3676494
250	0x3e197ea5	0.14989717
251	0x3f174ee2	0.5910474
252	0xbf04e886	-0.519173
253	0xba9cc0bd	-0.0011959296
254	0xbf1a348f	-0.6023645
255	0xbf7aacb8	-0.979198

layer1.0.bn2.weight f4 [16]
0	0x3f66e852	0.9019824
1	0x40048f60	2.071251
2	0x3f882ce6	1.0638702
3	0x3f6ddfd9	0.9291969
4	0x3fd0c086	1.6308753
5	0x3fa4d217	1.2876614
6	0x402a68b0	2.6626396
7	0x3f38f641	0.72250754
8	0x3f512aaf	0.81705755
9	0x3f6385c1	0.8887597
10	0x3fc0a42e	1.5050104
11	0x3ff216c7	1.8913201
12	0x3fc5272f	1.5402583
13	0x3f902c94	1.1263604
14	0x3fdb93c0	1.7154465
15	0x3fc60a31	1.547186

layer1.0.bn2.bias f4 [16]
0	0x3e014efe	0.1262779
1	0x3e7365e0	0.23769331
2	0x3e1a3108	0.15057766
3	0x3dea8583	0.114512466
4	0x3f37a3b8	0.7173419
5	0x3f60b849	0.87781197
6	0x3f239ec7	0.6391415
7	0xbdf2983e	-0.11845444
8	0xbef1c5c0	-0.47221184
9	0xbe99bfb1	-0.3002906
10	0x3f7dba0f	0.9911203
11	0x3e4a028f	0.19727539
12	0xbe4be223	-0.19910483
13	0xbf25b3f6	-0.64727724
14	0x3d8e6013	0.069519185
15	0x3f81105e	1.008312

layer1.0.bn2.running_mean f4 [16]
0	0x4121622b	10.086467
1	0xc056d172	-3.3565335
2	0xbfe5d9ae	-1.7957056
3	0x3f81e1da	1.014705
4	0xc0a9ba16	-5.3039656
5	0x3dceedf8	0.10103983
6	0xc090af03	-4.5213637
7	0xc0032dc5	-2.0496686
8	0xbfb68235	-1.4258486
9	0xc0af035e	-5.469161
10	0xc09cc86c	-4.8994656
11	0x3f4463b1	0.76714617
12	0x3dd072a5	0.10178117
13	0xc083d5cc	-4.1198483
14	0xbd4cb53f	-0.049977537
15	0x3ff04bb5	1.8773104

layer1.0.bn2.running_var f4 [16]
0	0x421a3756	38.55404
1	0x420526cf	33.2879
2	0x42476086	49.84426
3	0x41d1cb37	26.224226
4	0x42a6d44d	83.41465
5	0x42141c6d	37.02776
6	0x42305da2	44.09144
7	0x422cfc48	43.24637
8	0x416d3e5c	14.827724
9	0x42211f2f	40.280453
10	0x41dec753	27.847326
11	0x421b4731	38.819523
12	0x42034fbe	32.827873
13	0x42137828	36.86734
14	0x41be8834	23.816505
15	0x41a85bbb	21.04479

layer2.0.conv1.weight f4 [32, 16, 3, 3]
0	0xbf873507	-1.0563058
1	0xbf4fe576	-0.81209505
2	0xbe8400a1	-0.2578173
3	0xbee3b414	-0.44473326
4	0xbf366655	-0.71249896
5	0xbd9f5152	-0.077791825
6	0x3e801c4b	0.25021586
7	0x3e5130af	0.20428728
8	0xbcefae54	-0.02925793
9	0xbfa180ba	-1.2617409
10	0xbd8a610b	-0.06756791
11	0xbe1fc0b8	-0.1560086
12	0xbf5d04f3	-0.86335677
13	0xbe8b1f5e	-0.2717237
14	0xbdc60e02	-0.096706405
15	0xbf1bc79e	-0.60851467
16	0x3eeee48b	0.4665874
17	0x3f17c4d5	0.59284717
18	0xbf5ec3da	-0.87017596
19	0xbfc00f7b	-1.5004724
20	0xbfbbc04a	-1.4668057
21	0xbd64745b	-0.055775028
22	0xbe9d77c0	-0.30755424
23	0xbf712ed1	-0.9421206
24	0xbdd6026e	-0.10449682
25	0xbf06e47c	-0.5269239
26	0xbf65b35d	-0.8972681
27	0x3e9bf651	0.30461362
28	0x3da06827	0.078323655
29	0x3e15c14e	0.14624521
30	0x3e4fc52c	0.20290059
31	0x3e76fd4a	0.2412006
32	0x3edd2000	0.43188477
33	0x3ec606ec	0.38677156
34	0x3d810324	0.06299427
35	0x3eb535ba	0.35392553
36	0xbd55cfd6	-0.05220016
37	0xbc97bf8b	-0.018523952
38	0x3dc52b26	0.096273705
39	0x3e6a0b7d	0.22855945
40	0xbea478c5	-0.3212339
41	0xbeff0f43	-0.4981633
42	0xbd50c3a8	-0.050967842
43	0xbf2bfdd6	-0.671842
44	0xbfbd1616	-1.4772365
45	0xbf8726ef	-1.0558757
46	0xbf37f0bd	-0.7185171
47	0xbea66a8b	-0.3250316
48	0xbf1c579e	-0.61071193
49	0xbece0806	-0.40240496
50	0xbba22a8c	-0.0049489196
51	0x3e93bbfa	0.28854352
52	0x3f3667b0	0.71251965
53	0x3f529abc	0.82267356
54	0xbe385ea2	-0.1800485
55	0x3e076f47	0.13226043
56	0xbe2028a3	-0.15640502
57	0x3dc1f828	0.0947116
58	0x3d78f005	0.060775775
59	0xbee3c40d	-0.44485512
60	0x3e53f5c5	0.20699222
61	0xbd8ca531	-0.06867445
62	0xbf318ec7	-0.69358486
63	0xbe29c963	-0.16580729
64	0xbd9ebf18	-0.07751292
65	0xbe7db02b	-0.24774234
66	0xbf2aeaaa	-0.6676432
67	0xbecf994b	-0.4054664
68	0xbf458168	-0.77150583
69	0xbfbcfff5	-1.4765612
70	0xbf8657ee	-1.0495584
71	0xbf7f81c0	-0.9980736
72	0xbedbb1ff	-0.42909238
73	0xbefb4714	-0.49077666
74	0x3e599a71	0.21250321
75	0xbf3e1bbe	-0.7426108
76	0xbf5dfdf6	-0.8671564
77	0xbe47b3cc	-0.19502181
78	0xbf7dd234	-0.9914887
79	0xbf5767da	-0.8414284
80	0xbe5144c2	-0.20436385
81	0xbd12c8b3	-0.035835933
82	0x3e828c90	0.25497866
83	0x3f1ee698	0.6207061
84	0xbdd6f614	-0.104961544
85	0xbd9edbb5	-0.077567495
86	0x3e4defe7	0.20111047
87	0x3f22510f	0.63404936
88	0x3f18b518	0.5965133
89	0x3eac3287	0.336323
90	0x3d9fa4e6	0.07795124
91	0x3ded44d7	0.11585396
92	0xbec76527	-0.3894436
93	0x3e298edc	0.16558403
94	0x3e9557c5	0.29168525
95	0xbe87fdd6	-0.2656085
96	0x3e330e26	0.17485866
97	0x3e351109	0.1768228
98	0x3e052ebb	0.13006108
99	0xbda99fc1	-0.08282424
100	0xbf0c8753	-0.5489399
101	0xbec9c058	-0.3940456
102	0xbe416e8b	-0.18889825
103	0xbee1f4ef	-0.44132182
104	0xbe322f72	-0.17400911
105	0x3e95fab6	0.2929284
106	0x3e816a9c	0.2527665
107	0x3c8c146a	0.017099578
108	0xbeb3647f	-0.3503761
109	0xbe49d8ee	-0.19711658
110	0xbe46b6d6	-0.19405684
111	0x3dc139d2	0.094348565
112	0x3d9757b5	0.07389776
113	0xbd730b5e	-0.059337012
114	0xbe81522e	-0.2525801
115	0x3e1d3a7c	0.15354341
116	0x3cbdf0ce	0.023186114
117	0x3e3f2593	0.18666677
118	0x3e6b7bea	0.22996488
119	0xbe1cd9b2	-0.15317419
120	0x3eb0bb75	0.34518018
121	0x3e8c0dac	0.2735418
122	0xbd85f078	-0.065400064
123	0x3f21f80a	0.632691
124	0x3ea253f3	0.31704673
125	0xbb93dbd9	-0.004512292
126	0x3f14df5b	0.58153313
127	0x3edb68f3	0.42853507
128	0x3ec4796b	0.38373885
129	0x3e976798	0.29571223
130	0x3dbce96f	0.092242114
131	0x3ef7442c	0.482942
132	0x3f6ede19	0.93307644
133	0x3edcea67	0.43147585
134	0x3d32bb08	0.0436354
135	0xbe2e3a12	-0.1701434
136	0xbe9c4e02	-0.30528265
137	0xbf10b7db	-0.5653054
138	0xbe0d96a5	-0.13826998
139	0xbeaf13ef	-0.34194896
140	0xbf3417bc	-0.70348716
141	0x3f1d5afa	0.61466944
142	0x3f1a4a0d	0.6026924
143	0x3e78c074	0.24292165
144	0xbd82dc15	-0.063896336
145	0x3df8f379	0.12155814
146	0x3d45dc0c	0.048305556
147	0xbeee61c5	-0.46558967
148	0xbec21658	-0.37907672
149	0x3d0b7db5	0.03405543
150	0xbf67b6eb	-0.90513486
151	0xbf308ba3	-0.6896307
152	0xbf06f083	-0.5271074
153	0xbe8896b4	-0.26677477
154	0xbdb36f03	-0.08761408
155	0xbdd20490	-0.102547765
156	0xbf40fb3d	-0.7538336
157	0xbf2a2b62	-0.66472447
158	0x3da9d140	0.082918644
159	0x3ed7f0fa	0.42176038
160	0x3f068d5f	0.52559465
161	0x3f109216	0.5647291
162	0xbea0e1fa	-0.31422406
163	0xbea3ec93	-0.3201643
164	0xbe1659ff	-0.14682768
165	0x3ed7c7e7	0.421447
166	0x3ecaebfe	0.39633173
167	0x3e22e021	0.15905811
168	0xbe50e7ab	-0.20400874
169	0xbd89f918	-0.06736964
170	0x3ca94d8d	0.020666862
171	0xbee0538c	-0.4381374
172	0xbec3befc	-0.38231647
173	0x3e9d8581	0.30765918
174	0x3e44f90f	0.19235633
175	0x3eae8dd7	0.3409259
176	0xbe051a62	-0.12998345
177	0x3d8074df	0.062722914
178	0x3e12cfac	0.14337033
179	0xbe8d4a87	-0.27595922
180	0x3ee5d8c6	0.44891948
181	0x3e665922	0.22494939
182	0xbd000ee0	-0.031264186
183	0x3dc59d17	0.09649103
184	0x3cf0b799	0.029384421
185	0x3d036d99	0.032086942
186	0xbf016637	-0.5054659
187	0xbf0dfa91	-0.5546046
188	0xbee1f173	-0.44129524
189	0x3dbeb3b3	0.09311619
190	0x3e0ef281	0.13959695
191	0x3c213bbf	0.009840905
192	0x3db83d24	0.08996037
193	0x3ea22535	0.31669012
194	0x3e17cae9	0.14823498
195	0xbe9e23b6	-0.3088662
196	0xbedc8b78	-0.43075156
197	0xbf044763	-0.5167143
198	0xbeb921fd	-0.36158744
199	0xbf39b681	-0.72544104
200	0xbef6019f	-0.48048112
201	0x3f4456b9	0.7669483
202	0x3f46f734	0.7772095
203	0x3ea06cb4	0.31332934
204	0xbed49dd8	-0.41526675
205	0xbf0d024a	-0.5508162
206	0xbeba84f0	-0.36429548
207	0x3dd5751c	0.104227275
208	0x3e3b05f7	0.18263994
209	0x3e6b7601	0.22994234
210	0xbebb9de0	-0.36643887
211	0xbe82fa14	-0.2558142
212	0xbd1d970e	-0.038474135
213	0x3d949da4	0.0725663
214	0x3f095085	0.5363849
215	0x3f52cd06	0.8234409
216	0xbdcfee95	-0.10152928
217	0x3cf3d84b	0.029766222
218	0xbc7cfa66	-0.015440559
219	0x3ca47900	0.020077229
220	0x3e98b9b2	0.29829174
221	0x3e61abae	0.22038147
222	0xbeaa8b0b	-0.33309206
223	0xbdcc802c	-0.09985384
224	0xbde0471b	-0.10951062
225	0x3f54df8c	0.83153605
226	0x3f45c6a9	0.77256256
227	0x3f43508d	0.76294786
228	0xbf2d8d15	-0.677934
229	0xbf113b42	-0.56731045
230	0xbe36dbbc	-0.1785726
231	0xbe9398d6	-0.28827542
232	0xbe20f9f4	-0.1572035
233	0xbe62333c	-0.22089857
234	0xbf450aea	-0.7696978
235	0xbecff0a2	-0.40613276
236	0xbe94d4d2	-0.2906862
237	0x3e563f6e	0.20922634
238	0xbb2fd2ca	-0.002682852
239	0xbf39a487	-0.72516674
240	0x3f02304c	0.50854945
241	0x3f045bef	0.5170278
242	0xbe2628c9	-0.16226496
243	0xbe42774e	-0.18990824
244	0xbd8f42b0	-0.069951415
245	0xbda72ec7	-0.08163219
246	0xbe8b81c0	-0.2724743
247	0xbf018ae4	-0.50602555
248	0xbf09ba1b	-0.537996
249	0x3ef3c444	0.47610676
250	0x3f4c5ccd	0.798291
251	0x3f4a80cf	0.79102796
252	0x3f820f28	1.0160875
253	0x3fa296b9	1.2702247
254	0x3f8501d1	1.0391179
255	0xbe3101b2	-0.17285803

layer2.0.bn1.weight f4 [32]
0	0x3f58da53	0.84708136
1	0x3f8cc162	1.0996516
2	0x3f848d5e	1.0355642
3	0x3fab60a3	1.3388866
4	0x3f7fc884	0.9991534
5	0x3f9ebd78	1.2401571
6	0x3f70de69	0.9408937
7	0x3f8530da	1.0405533
8	0x3f3ad226	0.7297691
9	0x3f8e305a	1.1108506
10	0x3f9f0834	1.2424378
11	0x3f54a66c	0.8306644
12	0x3f87331f	1.0562476
13	0x3f8ac755	1.0842081
14	0x3f951131	1.1645871
15	0x3f8cefab	1.1010641
16	0x3f5f4260	0.87210655
17	0x3f8db7c8	1.107171
18	0x3f8a8587	1.0821999
19	0x3f8a6fdc	1.0815387
20	0x3f872968	1.0559511
21	0x3fad9285	1.3560339
22	0x3f81bdd1	1.0136052
23	0x3f8cc892	1.0998709
24	0x3f6f9c52	0.935979
25	0x3f999f2a	1.2001698
26	0x3f91e4ed	1.1397988
27	0x3f7f07c8	0.9962125
28	0x3f775ed0	0.9662905
29	0x3f8b6555	1.0890299
30	0x3fb1eafd	1.3899838
31	0x3f7e867b	0.9942395

layer2.0.bn1.bias f4 [32]
0	0xbeb71dba	-0.35764867
1	0xbee44b3f	-0.44588658
2	0xbc1dd3af	-0.009632989
3	0xbee6f486	-0.45108432
4	0xbece854c	-0.40336072
5	0xbed018b7	-0.40643856
6	0xbea5f6dc	-0.324149
7	0xbdb30f6a	-0.087431744
8	0xbf4cd678	-0.80014753
9	0xbf19e899	-0.6012054
10	0xbecc1b44	-0.39864552
11	0xbf0ca336	-0.5493654
12	0xbf01fe02	-0.5077821
13	0xbf2e057e	-0.6797713
14	0xbf6fcbd7	-0.9367041
15	0xbf401f5a	-0.7504784
16	0xbf0edbfb	-0.55804414
17	0xbf4e91ce	-0.8069123
18	0xbf15c1a1	-0.5849858
19	0xbf56d939	-0.83925205
20	0xbf215501	-0.6302033
21	0xbecd7ceb	-0.40134367
22	0xbec6d1cc	-0.38831937
23	0xbf23678a	-0.63829863
24	0xbf082e0c	-0.5319526
25	0xbe851061	-0.2598906
26	0xbeef5857	-0.46747085
27	0xbe88e590	-0.26737642
28	0xbef20748	-0.4727118
29	0xbf669ff4	-0.9008782
30	0xbf49f951	-0.7889605
31	0xbebb040f	-0.36526534

layer2.0.bn1.running_mean f4 [32]
0	0xc18444a7	-16.533522
1	0xc1195cf6	-9.585196
2	0xc15af64f	-13.685134
3	0xc124c47f	-10.297973
4	0xc0900926	-4.5011168
5	0xc08a748a	-4.326726
6	0x4119fb61	9.623872
7	0xc1319db5	-11.101003
8	0x4104c451	8.297929
9	0xc08fddb4	-4.4958134
10	0xc0559b5a	-3.337607
11	0xc1b02e85	-22.022715
12	0xc0936a19	-4.6067014
13	0xc00f5239	-2.2393935
14	0xc0985665	-4.760546
15	0x40d76b44	6.731844
16	0xc125ba4d	-10.357984
17	0xc19bec2e	-19.490322
18	0xc13f1878	-11.943474
19	0xc119a2f9	-9.602288
20	0xc07e3339	-3.9718764
21	0xc0ce43bd	-6.445769
22	0xc1ed0808	-29.628922
23	0xc1c08d89	-24.069109
24	0x3eb7b9c5	0.35883918
25	0xc13d1721	-11.818147
26	0xc10641ec	-8.391094
27	0xc17967e2	-15.587862
28	0xc13ce6db	-11.806361
29	0xc0ed42ae	-7.4143896
30	0xc0ca85f6	-6.3288527
31	0xc197c76a	-18.97237

layer2.0.bn1.running_var f4 [32]
0	0x42cbf528	101.97882
1	0x42a1e41a	80.94551
2	0x4332648f	178.3928
3	0x436b12c1	235.07326
4	0x430b6228	139.38342
5	0x4304317d	132.19331
6	0x43176f61	151.43507
7	0x42e19093	112.78237
8	0x425210f0	52.51654
9	0x42f92958	124.58075
10	0x43051b6f	133.10716
11	0x42d57662	106.73122
12	0x42f323b8	121.56976
13	0x428f5874	71.67276
14	0x42b59722	90.79518
15	0x42b2cf61	89.40504
16	0x42aef722	87.48268
17	0x42b63f4e	91.12364
18	0x43700b52	240.04422
19	0x438190f3	259.13242
20	0x4293da11	73.92591
21	0x430d0f3f	141.05956
22	0x43105d4f	144.36449
23	0x4342eb8f	194.92015
24	0x4305b218	133.69568
25	0x42fd46bc	126.63815
26	0x42b5d58e	90.9171
27	0x434fe482	207.89261
28	0x4344460c	196.27362
29	0x43191b17	153.10582
30	0x4320d1b2	160.81912
31	0x42c52ab4	98.583405

layer2.0.conv2.weight f4 [32, 32, 3, 3]
0	0xbe764295	-0.24048837
1	0x3e3d8919	0.1850933
2	0xbd6640bc	-0.05621408
3	0xbe6452da	-0.2229723
4	0x3d683fee	0.056701593
5	0x3d521702	0.051291473
6	0xbe091c5d	-0.13389726
7	0x3ebfff45	0.37499443
8	0xbd2a374a	-0.041556634
9	0x3c2eac39	0.010661178
10	0xbd519f1d	-0.051177133
11	0x3e97241a	0.2951973
12	0xbce565da	-0.028002668
13	0x3e3142ee	0.17310688
14	0x3eda71a0	0.42664814
15	0x3e74fdfd	0.23925014
16	0x3e5970fe	0.2123451
17	0x3f36125a	0.7112175
18	0xbdb1756f	-0.08664977
19	0xbeabd6aa	-0.33562213
20	0xbf637030	-0.8884306
21	0x3e3846c4	0.17995745
22	0xbdc48770	-0.09596145
23	0xbe32bb49	-0.17454256
24	0x3e5ef569	0.21773304
25	0x3e1e54e5	0.15462072
26	0xbdaac709	-0.08338744
27	0x3f5a11c3	0.8518335
28	0x3d0300a9	0.03198305
29	0xbf0ded34	-0.5544007
30	0x3f3007da	0.6876198
31	0x3d43ea20	0.0478307
32	0xbeba20f9	-0.3635328
33	0x3f6f0ce9	0.93379074
34	0x3e0a13fc	0.13484186
35	0xbed632d0	-0.41835642
36	0x3f07f840	0.53113174
37	0x3ea5e0ac	0.32397974
38	0x3d861677	0.065472536
39	0x3e870416	0.26370305
40	0x3d35aace	0.044352345
41	0x3dad1251	0.08450759
42	0xbb92c0d6	-0.0044785542
43	0x3e3e061b	0.18557017
44	0xbd36033d	-0.044436682
45	0x3e8a5e6e	0.2702517
46	0x3ea9116f	0.33021113
47	0xbdab5781	-0.083662994
48	0x3d43fa8b	0.04784636
49	0x3dc048da	0.09388895
50	0x3db09909	0.08622939
51	0x3ea4a0b1	0.32153848
52	0x3d2e1c21	0.042507295
53	0xbe6056bb	-0.21908085
54	0x3e4dea63	0.20108943
55	0xbd8420c5	-0.06451563
56	0x3d7104b3	0.058842372
57	0x3f006f67	0.50169986
58	0x3db95db4	0.090510756
59	0xbe018539	-0.12648477
60	0x3dcbab05	0.09944729
61	0xbd7e8e59	-0.062147472
62	0xbe728011	-0.23681666
63	0xbe5e168e	-0.21688291
64	0x3e179c33	0.14805679
65	0x3de9bf9e	0.11413501
66	0x3c76ca45	0.015062873
67	0x3da95f5d	0.08270142
68	0x3ea55deb	0.32298216
69	0x3e66cbf0	0.22538733
70	0x3eb14090	0.3461957
71	0x3ea59d53	0.3234659
72	0xbf3f83f7	-0.7481074
73	0x3d8440a0	0.06457639
74	0xbeacbc61	-0.33737472
75	0xbef6747a	-0.4813574
76	0xbe20532c	-0.15656728
77	0xbe80d6d7	-0.2516391
78	0xbf8e388f	-1.111101
79	0xbf115032	-0.56762993
80	0xbf026860	-0.50940514
81	0x3bfc34ab	0.007696708
82	0x3b344907	0.0027509348
83	0xbe155ef0	-0.14586997
84	0xbdbe9a84	-0.09306815
85	0x3e909b1e	0.28243345
86	0x3c495430	0.012288138
87	0x3e33d1a1	0.17560436
88	0x3ced77b4	0.028987743
89	0x3dfffad3	0.12499013
90	0x3eefdf37	0.46849987
91	0x3e9bca99	0.30428007
92	0x3e512965	0.20425947
93	0x3ef954c7	0.48697492
94	0x3e910f7c	0.28332126
95	0x3ec107e7	0.37701342
96	0x3e8c5eaf	0.27415988
97	0x3e2ed08b	0.1707174
98	0x3e40bff9	0.18823232
99	0x3f6ab75c	0.91686034
100	0x3f83db6c	1.0301337
101	0x3f36ab79	0.71355397
102	0x3f3e816e	0.74416244
103	0x3f55b27a	0.8347546
104	0x3ee24738	0.4419496
105	0x3f386f3a	0.7204472
106	0x3ee8edba	0.4549387
107	0x3ea1c4f7	0.31595585
108	0x3dfe2bdc	0.12410709
109	0x3e923bf7	0.28561375
110	0x3ef3f2d4	0.476462
111	0xbdfbfda7	-0.1230424
112	0x3e03b1e8	0.12860835
113	0x3d746817	0.05966958
114	0xbe66cf91	-0.22540118
115	0xbbc7d466	-0.006098318
116	0xbd693c6d	-0.056942392
117	0xbeaa2087	-0.3322794
118	0xbe8d4ef5	-0.27599302
119	0xbf0a3368	-0.5398469
120	0xbce7efb2	-0.028312538
121	0xbe23404e	-0.15942499
122	0xbf2cdf04	-0.67527795
123	0x3dc25fa3	0.094908975
124	0xbed8e944	-0.42365468
125	0xbf904930	-1.1272335
126	0x3f9a3c12	1.2049582
127	0x3f949c94	1.1610284
128	0xbe1738b6	-0.14767727
129	0x3fc00bb4	1.5003572
130	0x3fad393e	1.3533094
131	0x3e63eb73	0.22257785
132	0x3f965290	1.1743946
133	0x3f976472	1.1827528
134	0x3e7d175e	0.24715945
135	0xbddcd3a6	-0.10782556
136	0xbe93e195	-0.28883043
137	0xbf1fa76b	-0.62364835
138	0x3cac1a20	0.021008551
139	0xbc6ab835	-0.014326145
140	0xbe7879e5	-0.24265249
141	0xbe01dcf2	-0.1268194
142	0x3dbbca9b	0.09169503
143	0xbe9c75d7	-0.30558655
144	0xbf6b6a59	-0.9195915
145	0xbf2d1d0c	-0.67622447
146	0xbef0f7f7	-0.47064182
147	0xbf34eccb	-0.7067382
148	0xbf05e30b	-0.52299565
149	0xbf3057ff	-0.6888427
150	0xbf044d8a	-0.51680815
151	0xbe8bb0bb	-0.27283272
152	0xbf3fa121	-0.7485524
153	0x3ef298be	0.47382158
154	0x3ea04bc3	0.31307802
155	0xbf397265	-0.7244018
156	0x3ed094ff	0.40738675
157	0x3ecee33e	0.40407747
158	0xbf60b870	-0.8778143
159	0x3ec64dcb	0.38731226
160	0x3ec8aac1	0.39192775
161	0xbf470096	-0.7773527
162	0xbf254dde	-0.6457194
163	0xbeafd230	-0.34340048
164	0xbf9cba73	-1.22444
165	0xbf1d0145	-0.6133006
166	0x3d8307cc	0.063979715
167	0xbdc178cb	-0.094468676
168	0xbf01e7f8	-0.5074458
169	0x3e84fde5	0.25974956
170	0x3dd782d1	0.10522998
171	0xbf3d213b	-0.7387883
172	0x3eb2f018	0.34948802
173	0x3f26c700	0.651474
174	0xbe32740c	-0.17427081
175	0x3e23c9a3	0.15994887
176	0x3e56967a	0.2095584
177	0x3f8fc004	1.1230474
178	0x3f4046fe	0.75108325
179	0xbcbeb590	-0.023279935
180	0x3dabc71b	0.08387586
181	0xbe056f83	-0.1303082
182	0xbcaa7e6a	-0.020812232
183	0xbdb71d15	-0.08941094
184	0x3e4e22fe	0.20130536
185	0xbe0cbde6	-0.13744316
186	0x3dcfa29b	0.101384364
187	0x3e04b324	0.12958962
188	0x3ed6b0e2	0.41931826
189	0x3ec636ca	0.38713676
190	0x3edaccbb	0.42734322
191	0xbe6acc40	-0.22929478
192	0x3ef4a7c0	0.47784233
193	0x3e0b7575	0.13619025
194	0xbdef334a	-0.116797045
195	0x3f1860ea	0.5952288
196	0xbd27c0b5	-0.040955264
197	0xbe05e433	-0.13075332
198	0xbe80b203	-0.25135812
199	0xbebbf7ac	-0.36712396
200	0xbec81fce	-0.39086765
201	0x3e1291ce	0.14313433
202	0x3e877ab8	0.26460814
203	0xbe3dba03	-0.18527989
204	0xbe42c698	-0.1902107
205	0xbe06fbc7	-0.13181983
206	0xbf0d2a24	-0.55142426
207	0xbef77145	-0.48328605
208	0xbf24dd4a	-0.6440016
209	0xbe00b0b3	-0.12567405
210	0xbdf85383	-0.121253036
211	0x3de0b5de	0.109721884
212	0xbd554f12	-0.05207736
213	0xbe117b5b	-0.14207213
214	0xbdb14fe8	-0.08657819
215	0x3d8c6eb4	0.068570524
216	0x3f10111c	0.56276107
217	0x3edab698	0.42717433
218	0x3ea4bea2	0.3217669
219	0x3ebe12fd	0.37123862
220	0x3f340feb	0.7033679
221	0x3e4ea050	0.20178342
222	0x3ef8fcbe	0.48630327
223	0x3eb98a38	0.36238265
224	0xbeb2ff5b	-0.34960446
225	0x3cdc9627	0.026927067
226	0x3f0afb98	0.5429015
227	0x3f05ca3c	0.5226171
228	0x3e8ee636	0.27910012
229	0x3f1297f5	0.5726312
230	0x3e970d1d	0.29502192
231	0x3f4ba3db	0.795469
232	0x3f1e2065	0.6176818
233	0x3e915a23	0.2838908
234	0x3e91a5b1	0.28446725
235	0x3e359bc7	0.17735206
236	0xbeabcda1	-0.3355532
237	0x3ecae9f0	0.39631605
238	0xbceee553	-0.029162085
239	0xbe205ef4	-0.15661222
240	0x3f25e113	0.6479656
241	0x3e10c744	0.14138514
242	0xbdcd6d96	-0.100306675
243	0x3f771e5b	0.96530694
244	0x3f0cd545	0.55012923
245	0xbea2208a	-0.3166545
246	0x3f8b856c	1.0900092
247	0x3f107d59	0.56441265
248	0xbecc31f7	-0.3988187
249	0x3fa1a0f3	1.2627243
250	0x3f5199b1	0.8187514
251	0xbeaf8aac	-0.34285486
252	0x3c448c24	0.011996303
253	0xbe53f915	-0.20700486
254	0xbdb13886	-0.08653359
255	0x3d09e681	0.03366709

layer2.0.bn2.weight f4 [32]
0	0x3f9a3ae3	1.2049221
1	0x3f859aa1	1.0437814
2	0x3fa61353	1.2974647
3	0x3f8d686a	1.104749
4	0x3f912d69	1.1341983
5	0x3ffab2bb	1.9585794
6	0x3fa02dfb	1.2514032
7	0x40012157	2.01766
8	0x3fb3323a	1.3999703
9	0x4010dbac	2.2634077
10	0x3fa8b7d8	1.3181105
11	0x3f927d6b	1.1444525
12	0x3f803b13	1.0018028
13	0x3fd3f82c	1.6560111
14	0x3fa9db88	1.3270121
15	0x3fcc3843	1.595467
16	0x3fbc70b7	1.4721898
17	0x3faa0af7	1.3284596
18	0x3fb42c22	1.4075968
19	0x3f85178e	1.0397813
20	0x3fbb7ef6	1.464812
21	0x3fc92ef2	1.5717452
22	0x3f9f6a8b	1.2454389
23	0x3fc5a031	1.5439512
24	0x3f95aae7	1.169278
25	0x3fb639e8	1.4236422
26	0x3fa02af2	1.2513106
27	0x3f8cf8ff	1.1013488
28	0x3fc4579c	1.5339236
29	0x3fe1d5b4	1.7643342
30	0x3f8d73b1	1.1050931
31	0x3fea4fa8	1.8305559

layer2.0.bn2.bias f4 [32]
0	0xbeb11d06	-0.34592456
1	0xbe990d66	-0.29893035
2	0xbe882a90	-0.26594973
3	0xbeb8ca74	-0.3609196
4	0xbe9fc6ed	-0.31206456
5	0xbe97ab05	-0.29622665
6	0xbe9d2318	-0.30690837
7	0xbf03e68c	-0.5152366
8	0xbede6500	-0.43436432
9	0xbe851eae	-0.2599997
10	0xbe600ba5	-0.21879442
11	0xbef17dd6	-0.47166318
12	0xbec5e147	-0.38648435
13	0xbf1d957e	-0.6155623
14	0xbe9147bd	-0.28375044
15	0xbe491a01	-0.19638826
16	0xbee13bed	-0.43991032
17	0xbec214e6	-0.3790657
18	0xbf24dd15	-0.64399844
19	0xbf079372	-0.5295936
20	0xbec02cea	-0.37534267
21	0xbf2936ec	-0.6609943
22	0xbec86d38	-0.39145827
23	0xbec59958	-0.38593554
24	0xbd1b055c	-0.037846908
25	0xbef5ab84	-0.4798242
26	0xbf34a5d4	-0.70565534
27	0xbd851e02	-0.06499864
28	0xbdce4429	-0.10071594
29	0xbe3ee980	-0.1864376
30	0xbeaeab45	-0.34115043
31	0xbefdaf6a	-0.49547893

layer2.0.bn2.running_mean f4 [32]
0	0x40853a5a	4.163373
1	0x3f7973df	0.9744243
2	0xbeb7ab60	-0.35872936
3	0x40c4971d	6.1434464
4	0xbd51fdf5	-0.051267583
5	0xbfa4e1c8	-1.2881403
6	0xc04bcd19	-3.1843932
7	0xbfa63de8	-1.2987642
8	0xbb9c528f	-0.004770584
9	0xc0d24e42	-6.572053
10	0xc0257fe7	-2.5859315
11	0xc05e2304	-3.4708872
12	0xbf5af857	-0.85535187
13	0xc00e3129	-2.2217505
14	0xc0b43d8f	-5.6325145
15	0xbff4fbe8	-1.9139376
16	0xbf3b3efe	-0.73142993
17	0xbf8fa37e	-1.1221769
18	0x403d5752	2.9584546
19	0x40abb959	5.3663754
20	0xc08d79bc	-4.42111
21	0xbfae0ab4	-1.3597016
22	0x3fba45af	1.4552516
23	0xc01c181e	-2.438972
24	0xbfd10f69	-1.6332828
25	0xc01f234a	-2.4865289
26	0xc064369a	-3.5658326
27	0xbfecc672	-1.8498061
28	0xc05322ba	-3.2989945
29	0xc020c129	-2.5117896
30	0x3f262375	0.64897853
31	0xc02fc0f9	-2.746153

layer2.0.bn2.running_var f4 [32]
0	0x41e08b28	28.067947
1	0x41bdca3a	23.723743
2	0x41ac51d5	21.539957
3	0x41faaec3	31.335333
4	0x41bab693	23.339148
5	0x41e009c4	28.004768
6	0x41e3f052	28.492344
7	0x41c8e963	25.113958
8	0x41c0ad88	24.084732
9	0x43031045	131.06355
10	0x420fa31b	35.909283
11	0x41c0d360	24.10321
12	0x41d70729	26.878496
13	0x41d6fbbe	26.872921
14	0x4227ec3e	41.980705
15	0x4194e711	18.612825
16	0x4194c00a	18.59377
17	0x420909eb	34.259686
18	0x41e11e37	28.139753
19	0x41e7ca8b	28.973898
20	0x420e8939	35.634007
21	0x41c4dc74	24.607643
22	0x41c3381c	24.402397
23	0x41ab115e	21.38348
24	0x420be4b6	34.97335
25	0x41a854b5	21.04136
26	0x41a3fa82	20.497318
27	0x42339643	44.89674
28	0x41e914f8	29.135239
29	0x41d4c2d2	26.595127
30	0x41abdf9a	21.48418
31	0x420fdab4	35.963577
